sample.onnx (onnx, 743 bytes, 4 tensors)

lin1.bias f4 [4]
00000000: c8e9 bdbe 9c83 fcbe 18d0 10be 1069 a1bd
-0.37092423 -0.4931916 -0.14141881 -0.07881367

lin2.bias f4 [4]
00000000: 166e aebe 801f e23d f45c d8be 22b1 cb3e
-0.34068364 0.110411644 -0.42258418 0.3978358

onnx::MatMul_13 f4 [4, 4]
00000000: 9003 3cbd 60ac f93c 7adb e13e 68ea 7cbe
00000010: 7091 653e 18c1 b73d 62de 923e 885d f6be
00000020: 3cf3 f53e 4436 37be 94ab 033e 5862 b83d
00000030: f0e6 fe3e f684 a8be b059 2a3e b6a1 863e
-0.045901835 0.030477703 0.4411276 -0.24698794 0.22418761 0.089723766 0.2868529 -0.48118234
0.48037136 -0.17891794 0.1285842 0.090031326 0.49785566 -0.3291394 0.16635776 0.2629525

onnx::MatMul_14 f4 [4, 4]
00000000: 82f1 cebe ce0b bfbe dab2 9bbe 6c40 8ebe
00000010: 0e8b ba3e f849 bebe 807e 72bc a060 af3c
00000020: 5c2c fd3e f013 f53d 987e 843d e0d4 bdbe
00000030: a09d 0e3e 8ebf b4be 7afe cebe 5840 9b3e
-0.4041863 -0.37313694 -0.3040989 -0.27783525 0.36434215 -0.3716581 -0.014800668 0.02140838
0.49447906 0.119666934 0.06469458 -0.37076473 0.13927317 -0.35302395 -0.40428525 0.30322528
